data.pth (torch, 4991 bytes, 6 tensors)

l1.weight f4 [8, 54]
00000000: 35df ac3e 2aab e6bd ad83 ccbe 7831 313e
00000010: 4341 303e f967 4ebe 1f78 abbd e741 a0be
00000020: d17a 15bf 4648 85be 62f2 a03e aadb 49be
00000030: 50de 163e 3e55 eebd 7f18 cebd 0857 08be
00000040: a4a4 e03e 8ac4 60be 4974 0c3f b90b 003f
00000050: 2c8f 033e 9b94 073f d3f8 e93e 3b00 8e3e
00000060: cd7f 92be 45ad cb3e 8fff 073f 4cfb 9bbe
00000070: e433 d13e 18da 96be ec7f fcbd ab37 adbe
00000080: ce28 983e e6df 9cbe 6fd2 50bd b308 f7bd
00000090: dae2 4f3e 9251 17bf 9c13 35be 63d2 06be
000000a0: ec26 bcbd c88b de3e 59cc 49be 5a6f efbd
000000b0: 259b b6be b365 a4be 7147 ff3e 7a15 b23e
000000c0: 99bc b33e ffeb 0c3f 45d6 10be 0c89 f63e
000000d0: 67a7 283c 9f00 8b3e 7aef 3fbe 69bd e33d
000000e0: 2e7d b13e 659c 913e 371c 553f 7aa4 d8be
000000f0: 0baf c23e 5412 723e 9e21 1c3f 4913 853e
00000100: b3e4 c43e 5129 153f dd4b 573f 2539 163f
00000110: 7f2f 5b3e 5cc6 eb3e 17f2 e23e 44ac d8be
00000120: c6f5 fc3e 2417 303f b64f 993c fe03 343f
00000130: 64ea 333f 1a8b 553f a6ab fc3e e12c c63e
00000140: e56d 1a3f fe7a 8a3a d5b9 bc3e 38ab bc3c
00000150: 300d a6be 3517 343f 248b 68bd 4455 963e
00000160: 095c 663e 222a 893e 350f d53e ea6a 1a3f
00000170: 2b6c dc3e 4abe 9e3e 0c19 52be a345 003f
00000180: df91 173f fc29 8b3e daa7 1c3f 86f6 dc3e
00000190: 2d45 05bf 9b2d 4abe daa7 933e b222 2f3f
000001a0: 331d 873e 00c2 d73e 00e4 883e 209b ec3d
000001b0: ce7a 103f 5a6e c03e 1fa9 fa3e f100 97be
000001c0: f180 4d3e 8be4 d8be 06a0 903e 7e4c 853e
000001d0: a183 0f3f 7bce f03e 1c3c 4cbe 0523 04be
000001e0: dd82 d13e d540 0dbd 976c b33e 463b cdbd
000001f0: f801 80be 316b d4be d9d2 0c3d f05e f7be
00000200: 6239 073f be4a f7be 0457 f7be 52b9 e1be
00000210: 4497 3dbe 6b9b 2fbe fe4b 463e 3013 97bc
00000220: eb4d 843e 9ca1 e4bd 007b 9fbe 661c abbd
00000230: 67df ac3e eb03 a13e 78ff 803e eb2d 7dbe
00000240: 259a b53e d7dd f73e 1080 b03e c638 8c3e
00000250: d3e0 d1be 672d efbc c3a1 66bd af2f 1e3e
00000260: 79e7 103e 8b7c 883e cc7d 7d3f 18cd 103f
00000270: aa50 e73d 0c4d 883e be75 5cbe 9f7c d43d
00000280: ec0b db3e 2771 013f 9548 183f 2680 5bbe
00000290: fb82 163f d22c 3c3d 5c51 fa3e c4b8 abbe
000002a0: 51a9 e33e 302f af3e 15bc 593f a0a7 b03e
000002b0: 2c8c 033f 106d 75be c3f0 043f 89bb 36be
000002c0: 5d1f bbbc cdd4 abbe 1254 c83e 08bb abbe
000002d0: 23e9 d43e 41e4 f83e e85f dc3e 1521 193f
000002e0: ddff 0a3f 2ac8 7fbe 0b41 ec3e 83d6 223e
000002f0: 64f0 bd3e b4d5 a0be ac7e d73e 94b9 b5be
00000300: 15a6 d2be 5869 b2bc 5d11 af3e bf68 2e3f
00000310: 9682 34be 8de6 9bbe 812c b33e 0113 643f
00000320: 47f1 103f 93f9 173f e9c2 83be 11e4 b33e
00000330: c0f4 41be f60f 053c 969f 9b3e 23f2 0dbd
00000340: 5661 3d3f d01b b53e 37d5 e13e 4062 d03e
00000350: 7c55 4bbe 1d9d b83e e069 133f 675c b53e
00000360: db49 f83e cf10 66bb d655 6fbe 24e7 c33e
00000370: c477 cc3d 0f4e 4fbc 06ee 0bbd ccef 10be
00000380: ab49 e8be f90e aabe 50e1 c93e 4674 9a3e
00000390: e4cc 30be 4c90 953e 670f 05be c98a d93d
000003a0: bc72 c33e 7135 76bd 780c f3bd d99e 1f3f
000003b0: 1446 b63e f8e8 043f 8e39 e93e a402 b13e
000003c0: 7ce8 f83c 23c7 ae3e 2afd 34be 88fa c9be
000003d0: 0468 70be 7943 30be c30b 003e ab59 a83d
000003e0: 016d d03e 4f3d 92be b240 36be 914c 653e
000003f0: 7640 23be 21f6 cebe 1f76 13be e9fe a4bc
0.33764043 -0.11263116 -0.3994421 0.17304027 0.17212395 -0.2015685 -0.08372521 -0.3130028
-0.5839053 -0.26031703 0.31434923 -0.19712701 0.14733243 -0.116373524 -0.10063266 -0.1331445
0.4387561 -0.21949974 0.5486494 0.5001789 0.12847584 0.5296113 0.4569765 0.2773455
-0.2861313 0.39780632 0.53124326 -0.30465162 0.40859902 -0.29463267 -0.12329087 -0.33831534
0.29718632 -0.3063957 -0.050981935 -0.12062206 0.20301381 -0.5910884 -0.17683262 -0.13166194
-0.09187111 0.4346602 -0.19706859 -0.116911605 -0.3566524 -0.3210884 0.49859193 0.3478201
0.35104826 0.550476 -0.14144237 0.48151433 0.010293818 0.2714891 -0.18743697 0.111201115
0.34665817 0.28439632 0.8324618 -0.42312986 0.38024172 0.23639804 0.60988796 0.25991276
0.38455734 0.5826617 0.84100133 0.58680946 0.21404837 0.46049774 0.44325325 -0.42318928
0.4940626 0.6878531 0.018714767 0.7031859 0.70279527 0.8341538 0.49349707 0.38706115
0.60323936 0.0010565219 0.3686053 0.023030862 -0.32431936 0.7034791 -0.05677332 0.29361928
0.22496046 0.26789957 0.41613165 0.6031939 0.43051276 0.31004554 -0.20517367 0.5010626
0.59206957 0.2718047 0.6119362 0.43156832 -0.5205868 -0.1974396 0.28838998 0.68412316
0.26389465 0.42140198 0.2673645 0.11553025 0.56437385 0.37584192 0.48957154 -0.29492906
0.20068718 -0.42361864 0.28247088 0.2603492 0.56060225 0.47032532 -0.19944805 -0.12903984
0.40920153 -0.034485657 0.35043785 -0.10021071 -0.25001502 -0.4148803 0.034380767 -0.4831462
0.52821934 -0.4829921 -0.48308575 -0.440867 -0.18514735 -0.17149131 0.19364926 -0.018441767
0.25840697 -0.11163637 -0.3114853 -0.08355026 0.33764192 0.31448302 0.25194907 -0.24724548
0.35469165 0.48411438 0.34472704 0.27387065 -0.4099184 -0.029196454 -0.05630661 0.15447877
0.141508 0.2665752 0.99020076 0.5656295 0.11294682 0.26621282 -0.2152929 0.10375332
0.42782533 0.5056328 0.5948575 -0.21435603 0.5879361 0.04594118 0.48890197 -0.33539402
0.44465116 0.3421569 0.85052615 0.34502888 0.5138576 -0.23967385 0.51929873 -0.17844976
-0.022842104 -0.33560792 0.3912664 -0.3354113 0.4158412 0.48611644 0.4304192 0.59816104
0.54296666 -0.249787 0.46143374 0.15902142 0.37097466 -0.31413043 0.4208883 -0.35493147
-0.41142336 -0.021778747 0.34192935 0.6812858 -0.1762794 -0.30449334 0.3499489 0.890915
0.5661816 0.59365195 -0.25734642 0.35134938 -0.18941021 0.008121481 0.30395192 -0.034654748
0.7397665 0.35372782 0.44107983 0.4069996 -0.19856828 0.36057368 0.5758343 0.3542206
0.48493847 -0.0035105234 -0.23372588 0.38262284 0.09983781 -0.012652888 -0.034162544 -0.14153975
-0.45368704 -0.33214548 0.39429712 0.30166835 -0.1726566 0.29211652 -0.12994157 0.10622174
0.38173473 -0.06010956 -0.118676126 0.6235176 0.3560034 0.5191798 0.45551723 0.34572327
0.030384295 0.34136304 -0.176747 -0.39448953 -0.23477179 -0.17213239 0.12504487 0.08220228
0.40708163 -0.285624 -0.17798117 0.22392489 -0.15942559 -0.40422156 -0.14400528 -0.020141082

l1.bias f4 [8]
00000000: 4821 3b3f 8bae d83e 6e6a f73e 12c2 ab3e
00000010: 79f5 2e3f 1ec1 103f 7447 143f 5ae6 5e3e
0.7309766 0.42320666 0.48323387 0.335465 0.6834331 0.56544673 0.5792153 0.2176756

l2.weight f4 [8, 8]
00000000: 3aa8 adbf 21da ea3e 5ba1 69be 4b86 bfbe
00000010: b996 303f 68f0 2e3f 0b60 983d 84fd 113f
00000020: 3668 b0be f9c4 a43f 7b23 623e d36a 4b3f
00000030: 5d33 4cbf 22a9 90be de58 2a3f bcf4 923f
00000040: ebf7 383f 6c4f b53e 61a1 27bf b620 c8bd
00000050: 0eec 713f d8d2 5b3f 09e6 493e bfe7 a2be
00000060: e59b 3d3e f7be ba3e 8ff8 e9be 03db 1abf
00000070: 13ff 133f 87cf 7b3f 2fa7 083f e323 373d
00000080: 36c1 b43e b153 20bf cbdf 653d dff9 1ebf
00000090: 31d4 423e 6fbe 883c b20d 883f 2eb6 803f
000000a0: 1cf5 22bf 00e7 0bbd 1e8b 933f ec7a 193f
000000b0: dced 393e 9a42 46bf 9984 7e3f 128a 77bf
000000c0: 222e b33f d7e5 f43d 74fe 523f d46e 763f
000000d0: 9b86 763f 157a 033e f2ee 8dbf 5d94 9c3e
000000e0: eba2 8c3e 1394 d23e 5503 83bf 4616 f0bd
000000f0: b3c1 403f 4bd8 613f 5e05 983e d326 e0bd
-1.3566964 0.45869544 -0.22815458 -0.37407145 0.68979985 0.6833558 0.07440194 0.5702746
-0.34454507 1.2872611 0.22083847 0.79459876 -0.79765874 -0.28254038 0.6654185 1.1480937
0.7225329 0.35412157 -0.6548062 -0.09771864 0.94500816 0.858686 0.19716658 -0.31817433
0.185165 0.3647382 -0.45697448 -0.60490435 0.5781109 0.98363537 0.533801 0.04471196
0.35303658 -0.626277 0.05612163 -0.62100023 0.19026257 0.016692368 1.062918 1.0055597
-0.6365526 -0.034155846 1.152683 0.5995319 0.18157142 -0.77445376 0.9942108 -0.96695054
1.3998454 0.11957901 0.82419515 0.9626286 0.9629914 0.1283954 -1.1088545 0.30581942
0.27468047 0.41128597 -1.0235392 -0.11722998 0.7529556 0.8822066 0.29691595 -0.10944905

l2.bias f4 [8]
00000000: da50 02be 5685 90bd 861b 373f 4206 b33e
00000010: 1f61 473f 9359 663f 0411 ec3e 1bec bc3e
-0.12726155 -0.07056682 0.7152637 0.34965712 0.7788257 0.8998043 0.46106732 0.36898884

l3.weight f4 [7, 8]
00000000: 58fe 743f 9a14 5c3e 4853 7e3c a203 c83d
00000010: 80cb 3abf 8864 70bf 7374 7abf 79da d63e
00000020: 6032 3dbe c47b ca3e e4a7 85bf 3276 a83c
00000030: 9f7c 293f fa8b 5a3e bb65 79bf 12d9 c7bf
00000040: ede9 a7bf 2805 3fbf 9cb8 b03e a935 233e
00000050: 897c 3c3f 3449 eb3e 3aa8 86bf 6062 2d3e
00000060: 0f14 32bf 38e8 08bf d84c cd3e 0157 8c3e
00000070: b369 d2bf 19f4 9dbf c009 f23e 1e7c 243f
00000080: d873 d3bd 08d4 2f3f 7ab4 d9be b0a2 73bf
00000090: 1d65 65bf 4dad 9abf 2922 ef3e 543e 58bf
000000a0: 4bb4 c7be bc0e 2e3f b4ee 48bf 46cb 3bbf
000000b0: 9ece bcbf e121 593f 6195 9ebe 4a47 c3be
000000c0: 0978 10be ed67 91bf abc0 33be 474d 7ebf
000000d0: 56df 05bf 7a56 bd3e 427d 593f 9843 94bf
0.957006 0.21492234 0.0155227855 0.09766318 -0.72966766 -0.939034 -0.9783394 0.41963556
-0.18476248 0.3954755 -1.0441861 0.020564172 0.6620578 0.2134246 -0.97420853 -1.561312
-1.3118263 -0.7461724 0.34515846 0.15938438 0.73627526 0.45954287 -1.0520089 0.16932058
-0.69561857 -0.5347934 0.4009769 0.2741013 -1.6438507 -1.2340118 0.47273064 0.6425189
-0.1032483 0.6868291 -0.42520505 -0.95170116 -0.8960741 -1.2084137 0.4670575 -0.84470105
-0.3900474 0.6799123 -0.7848923 -0.73357046 -1.4750555 0.8481732 -0.30973342 -0.38140327
-0.1410829 -1.1359841 -0.17553966 -0.99336666 -0.5229391 0.3698004 0.84956753 -1.1583128

l3.bias f4 [7]
00000000: 7ae9 2cbb 10b2 9abd 05a0 d33e 054c 213d
00000010: aa5a fbbd ee17 6d3e 2a15 a03e
-0.002638428 -0.07553494 0.41333023 0.03937914 -0.12273152 0.2315366 0.31266147
