data.pth (torch, 4991 bytes, 6 tensors)

l1.weight f4 [8, 54]
0	0xbeb8b5ce	-0.36076206
1	0x3f11dcb9	0.5697742
2	0xbe375b4c	-0.1790592
3	0x3d8fa88f	0.07014572
4	0x3ea742a3	0.32668027
5	0x3f04c397	0.51860946
6	0xbe88d3e9	-0.26724175
7	0xbec64cc4	-0.38730443
8	0xbe87a46e	-0.26492637
9	0xbe5c61e6	-0.2152172
10	0x3e87ccf8	0.26523566
11	0x3f030bb5	0.5118974
12	0x3e2d924b	0.16950338
13	0x3ef862d1	0.4851289
14	0x3f0a414e	0.540059
15	0x3e687170	0.22699523
16	0x3e676fa5	0.22601183
17	0x3ecae60d	0.3962864
18	0xbe8b6aac	-0.27229822
19	0x3eeed996	0.4665038
20	0xbe384dc6	-0.17998418
21	0x3ed3bd95	0.41355577
22	0x3ec431b3	0.38319167
23	0x3f1f6c38	0.62274504
24	0x3eaac9cf	0.33357093
25	0x3e16fa58	0.14743936
26	0x3c81c6d8	0.015841886
27	0x3f51f08d	0.82007676
28	0x3da2d572	0.07950868
29	0x3f1f1ce6	0.6215347
30	0x3eb8b729	0.3607724
31	0x3eebc6f3	0.46050224
32	0xbe0d1fca	-0.13781658
33	0xbe60aa6c	-0.21940011
34	0x3f0d58ff	0.5521392
35	0x3ea1b943	0.31586656
36	0x3dbb0195	0.09131161
37	0xbe014bd1	-0.12626578
38	0xbdef4663	-0.11683347
39	0xbe851d88	-0.25999093
40	0x3eb7b1df	0.35877892
41	0xbe9db9ad	-0.30805722
42	0x3e88f30f	0.2674794
43	0x3ed607cc	0.41802824
44	0x3e9ec74e	0.31011432
45	0x3f15c76c	0.5850742
46	0xbf3d1abc	-0.7386892
47	0xbe4ad3b8	-0.19807327
48	0x3ed3c8ae	0.41364044
49	0xbe524bf2	-0.20536783
50	0x3eaca839	0.33722094
51	0xbe8ee9f4	-0.27912867
52	0xbe50ffbb	-0.20410053
53	0x36a9913d	5.0535004e-06
54	0xbe94c5bd	-0.29057112
55	0x3e8b6726	0.27227134
56	0x3ed2fb1d	0.4120721
57	0x3f062c2e	0.5241116
58	0x3eda0881	0.42584613
59	0xbdba4e78	-0.09096998
60	0x3eff491e	0.4986047
61	0x3effe1f0	0.49977064
62	0x3f1ab8f8	0.6043849
63	0x3e9586fa	0.2920454
64	0x3ebd4b4a	0.36971503
65	0xbe970264	-0.2949401
66	0x3ef77422	0.4833079
67	0xbebc9d8c	-0.3683895
68	0x3f031050	0.51196766
69	0xbe93c00e	-0.28857464
70	0x3f041d9c	0.5160768
71	0x3d0c7c74	0.034298375
72	0x3e0e9211	0.13922907
73	0x3f55656e	0.83357894
74	0xbe5a452f	-0.21315454
75	0x3f52900f	0.82251066
76	0x3f48eb3d	0.78483945
77	0x3e681244	0.22663218
78	0x3d87eb39	0.06636662
79	0x3f131144	0.5744822
80	0xbac71094	-0.0015187436
81	0x3f311df8	0.69186354
82	0xbe4ce280	-0.20008278
83	0x3ececf64	0.403926
84	0x3d37302c	0.044723675
85	0xbea3fc61	-0.32028487
86	0xbde34bdf	-0.11098456
87	0x3eae1700	0.34001923
88	0x3f1b35d2	0.60629
89	0xbeb95dcd	-0.36204377
90	0xbee06f9a	-0.43835145
91	0x3ee21765	0.44158474
92	0x3f02beb3	0.51072234
93	0x3e990646	0.298876
94	0xbc84e71c	-0.016223483
95	0x3d6a1f0f	0.057158526
96	0xbeb53e6a	-0.3539918
97	0x3ee40316	0.44533604
98	0x3d2df20d	0.042467166
99	0x3f1e851c	0.6192186
100	0xbf25816e	-0.6465062
101	0xbe8a24bb	-0.26981148
102	0x3e2803ea	0.16407743
103	0xbbb2ad2c	-0.0054527726
104	0xbe805401	-0.2506409
105	0x3e8b2a46	0.2718069
106	0x3ebd0800	0.36920166
107	0x3e79a2b1	0.24378468
108	0x3db32df1	0.08748997
109	0x3f2f8b77	0.6857218
110	0xbe840969	-0.2578843
111	0xbd894112	-0.06701864
112	0xbec2e3a3	-0.38064298
113	0x3f222f8f	0.6335382
114	0xbddf142d	-0.1089252
115	0xbea755e1	-0.32682708
116	0xbdbf7fd4	-0.09350553
117	0xbe25cc76	-0.16191277
118	0xbe4ab59b	-0.1979584
119	0xbd412b87	-0.04716065
120	0xbd9b42e2	-0.07581116
121	0xbdea204c	-0.114319414
122	0x3f1521e0	0.58254814
123	0xbe2a5d1e	-0.16637084
124	0xbe8eb957	-0.27875778
125	0x3f458c9e	0.7716769
126	0xbe2ed3f3	-0.1707304
127	0xbef42556	-0.47684735
128	0x3e2d44b7	0.16920744
129	0xbef4408f	-0.47705504
130	0xbef428e2	-0.4768744
131	0xbeabe323	-0.3357173
132	0xbd8b7225	-0.06808881
133	0xbe3890f4	-0.18024045
134	0xbe9ce3a2	-0.3064242
135	0x3f5119a8	0.81679773
136	0x3dde8340	0.10864878
137	0x3f628f4c	0.88499904
138	0x3e9a61b2	0.3015266
139	0xbde12058	-0.10992497
140	0x3ce1a434	0.027544118
141	0xbec4832e	-0.38381332
142	0x3f416490	0.7554407
143	0xba0503ed	-0.00050741324
144	0xbc6265c8	-0.013818212
145	0xbd78b6fe	-0.06072139
146	0xbe59a5ac	-0.21254605
147	0xbabf028c	-0.0014572903
148	0x3eedc627	0.4644024
149	0xbeba7d00	-0.36423492
150	0x3d93d1b6	0.072177336
151	0x3f28fd72	0.66011727
152	0xbe1e46da	-0.15456715
153	0x3f3ba44a	0.7329756
154	0x3e976f9a	0.29577333
155	0x3e942e83	0.28941736
156	0xbe6b1d3f	-0.22960375
157	0xbe8dc64d	-0.27690354
158	0xba1315df	-0.0005610864
159	0xbe278e95	-0.16362984
160	0xbdafff66	-0.08593635
161	0x3e757c1f	0.2397313
162	0x3d792220	0.06082356
163	0xbf257c65	-0.64642936
164	0x3e5707ba	0.20999041
165	0x3ed785e3	0.42094335
166	0x3f192331	0.5981932
167	0xbf1d91db	-0.6155068
168	0x3eb8e09b	0.3610886
169	0x3e33ab31	0.17545773
170	0x3eb2ac2b	0.3489698
171	0x3e8d61f1	0.27613786
172	0x3efe65f7	0.49687168
173	0xbb0bc433	-0.002132666
174	0x3f4b4a02	0.794098
175	0x3e978c3b	0.29599175
176	0xbe3aa48f	-0.18226837
177	0x3c37aaf3	0.011210191
178	0x3f0dbfe5	0.5537093
179	0xbf1b9e5c	-0.6078851
180	0x3eeba403	0.4602357
181	0x3f3dc743	0.74132174
182	0x3dcf50b5	0.101228155
183	0x3f346eff	0.70481867
184	0x3f31ca7a	0.6944958
185	0x3ea09b17	0.31368324
186	0x3e6faa0a	0.23404709
187	0x3ee73895	0.45160356
188	0x3f3c6ef4	0.736068
189	0xbf3830e9	-0.7194963
190	0x3f01b390	0.50664616
191	0xbf25e34d	-0.6479996
192	0xbefd7ec4	-0.49510777
193	0x3e61a6b1	0.22036244
194	0x3f3b23b3	0.7310135
195	0x3e253e14	0.16136962
196	0xbe7e077e	-0.24807546
197	0x3bd0299e	0.0063526174
198	0x3f01c96f	0.5069799
199	0x3ef0faf6	0.47066468
200	0x3ea563da	0.32302743
201	0x3ee562fb	0.4480208
202	0xbf07dfb6	-0.5307573
203	0x3f035aaf	0.5131025
204	0xbd8e089e	-0.06935237
205	0xbc2311d4	-0.009952981
206	0x3e829652	0.2550531
207	0xbe33adca	-0.17546764
208	0x3dee244d	0.116280176
209	0x3de68ede	0.112577185
210	0x3f0091d9	0.50222546
211	0x3f17793d	0.5916937
212	0xbc9bf4b1	-0.019037576
213	0x3ed9714b	0.42469248
214	0x3efc1f79	0.49242762
215	0x3f25e2ef	0.647994
216	0x3f17085e	0.5899714
217	0x3cb55ac6	0.02213801
218	0x3ef794a1	0.48355582
219	0xbe6e7a76	-0.23288903
220	0xbe3c777a	-0.18404952
221	0x3ee4599d	0.4459962
222	0x3e9483d7	0.29006836
223	0x3e5f6a82	0.21817973
224	0x3f22d258	0.6360221
225	0x3eafe031	0.34350732
226	0xbe84f4f7	-0.25968143
227	0xbe35c6a6	-0.1775156
228	0xbe087183	-0.13324551
229	0xbd3fbb54	-0.04680951
230	0xbde46ac5	-0.11153177
231	0xbe585fce	-0.21130297
232	0xbe9229a4	-0.28547394
233	0x3ead87ff	0.3389282
234	0xbe4b97f2	-0.19882181
235	0xbed31dad	-0.41233578
236	0x3ee2101b	0.44152912
237	0xbede327c	-0.43397892
238	0xbf063fc7	-0.52441067
239	0xbeee5447	-0.46548674
240	0x3e420ba8	0.18949759
241	0xbda8ab44	-0.08235791
242	0xbe5b08bb	-0.21390049
243	0xbe9aff91	-0.30273107
244	0xbdb5df5d	-0.08880494
245	0xbf0490c7	-0.5178341
246	0x3e52db64	0.20591503
247	0xbe275c43	-0.16343789
248	0x3ed23e6f	0.41063258
249	0x3eabe56c	0.33573472
250	0xbe81ffe7	-0.2539055
251	0xbdac449e	-0.08411525
252	0x3d84ef33	0.06490936
253	0x3f2de644	0.6792948
254	0x3e3ec047	0.18628035
255	0x3e348f71	0.17632844

l1.bias f4 [8]
0	0x3f3d1ec9	0.738751
1	0x3f460afe	0.7736052
2	0x3ef416bf	0.47673604
3	0x3f1d98ef	0.61561483
4	0x3f0b8733	0.5450317
5	0x3f00d79b	0.5032899
6	0x3f4508fe	0.76966846
7	0x3f043d71	0.5165625

l2.weight f4 [8, 8]
0	0x3f00f51a	0.50373995
1	0xbeff972c	-0.49920022
2	0x3cc49aac	0.023999535
3	0x3d13a040	0.0360415
4	0x3f87e952	1.0618079
5	0x3f004fcf	0.5012178
6	0xbef54b13	-0.4790884
7	0x3f3d3459	0.73908
8	0xbf49588d	-0.7865074
9	0xbe3b516c	-0.18292779
10	0x3f77567c	0.9661634
11	0xbde73912	-0.11290182
12	0x3f95e847	1.171151
13	0x3fb18b65	1.3870665
14	0x3f6966b8	0.9117236
15	0x3fa3a846	1.2785728
16	0x3e530269	0.20606388
17	0x3fae8678	1.3634787
18	0xbfb14017	-1.3847684
19	0x3fbdc422	1.482548
20	0xbe970145	-0.29493156
21	0xbe7f3ec0	-0.24926281
22	0x3f1beb75	0.60906154
23	0xbef30ac0	-0.4746914
24	0x3f6ffc68	0.93744516
25	0x3f419279	0.75614125
26	0x3f39cd6e	0.72579086
27	0xbec93d5a	-0.3930462
28	0xbe962054	-0.2932154
29	0xbea5b720	-0.32366276
30	0x3f3dc5e4	0.7413008
31	0xbc14aba2	-0.009074124
32	0xbe14e15a	-0.1453909
33	0x3e881a13	0.26582393
34	0xbe9a49fa	-0.30134565
35	0xbea80484	-0.32815945
36	0xbd3b9890	-0.04579979
37	0xbd87ef38	-0.06637424
38	0xbea4b14c	-0.32166517
39	0xbe8c9e7f	-0.27464673
40	0x3fbc82b8	1.4727392
41	0x3f594788	0.84874773
42	0x3c7e695e	0.015528051
43	0xbf05b8d4	-0.5223515
44	0xbe5c6f15	-0.2152675
45	0xbf0769e9	-0.5289598
46	0x3f9848f7	1.1897267
47	0x3ea49e24	0.32151902
48	0x3f7e090c	0.99232554
49	0x3f1919d4	0.59805036
50	0x3fa81b0b	1.3133253
51	0xbf2d403d	-0.67676145
52	0xbf26edb4	-0.65206456
53	0x3eab6cde	0.33481497
54	0xbdabe116	-0.08392541
55	0x3ea877f7	0.32904026
56	0x3f2e5fc7	0.68114895
57	0xbec87f3c	-0.39159572
58	0xbecb70eb	-0.39734587
59	0x3f3936bb	0.7234914
60	0xbf46ccb7	-0.7765612
61	0x3f385ba4	0.7201483
62	0xbf08be16	-0.5341505
63	0x3ef7bbea	0.48385555

l2.bias f4 [8]
0	0xbd0765aa	-0.03305594
1	0x3eb0fb33	0.3456665
2	0x3f23217a	0.63722956
3	0x3de8044d	0.11328945
4	0xbea59403	-0.32339486
5	0x3e771895	0.24130471
6	0x3d65616e	0.05600112
7	0x3d6ceb79	0.05784175

l3.weight f4 [7, 8]
0	0x3f2f3529	0.6844049
1	0xbf2e30e4	-0.6804335
2	0xbf2baf3f	-0.6706428
3	0xbf5c589b	-0.860727
4	0x3c067fa0	0.008209139
5	0xbe497177	-0.1967219
6	0x3eb4ddd8	0.35325503
7	0x3f51c56f	0.81941885
8	0xbfa23d7c	-1.2675014
9	0xbfa2d85f	-1.2722281
10	0xbf2fc0e1	-0.68653685
11	0x3f338bf7	0.70135444
12	0x3e9dd4f7	0.30826542
13	0x3e819801	0.25311282
14	0x3f6b6362	0.9194852
15	0xbf1b25c7	-0.6060452
16	0xbe87c7af	-0.26519534
17	0x3e89ea1d	0.26936427
18	0xbf9b9735	-1.215552
19	0x3eab34e0	0.33438778
20	0xbeb12607	-0.34599325
21	0x3e9c9813	0.30584773
22	0x3e5a732a	0.21332994
23	0xbf83b7f0	-1.0290508
24	0xbf86fc5e	-1.0545766
25	0xbfe3bdc9	-1.7792293
26	0x3f37cf98	0.7180114
27	0x3ef5a3b0	0.47976446
28	0x3e678e8e	0.22612974
29	0x3ef60d2a	0.48056918
30	0xbe2aec67	-0.16691743
31	0xbee8b431	-0.45449975
32	0xbef68eae	-0.4815573
33	0xbf2687b9	-0.65050846
34	0x3f42d6c3	0.7610895
35	0xbfbe0d19	-1.4847747
36	0x3dc3bf48	0.095579684
37	0xbf7628e4	-0.96156144
38	0xbf7e7fc9	-0.99413735
39	0x3f3f8704	0.7481539
40	0xbeeb8f31	-0.46007684
41	0x3e4cd57b	0.20003311
42	0x3e04c900	0.129673
43	0xbe1016b7	-0.14071165
44	0x3e6b98f6	0.23007569
45	0x3e665c8d	0.22496243
46	0xbfc19586	-1.5123756
47	0xbf58d769	-0.8470369
48	0x3f3e34ad	0.74299127
49	0x3f6186d6	0.8809637
50	0xbf48c436	-0.78424394
51	0xbfa90de8	-1.3207369
52	0xbd3242a0	-0.04352057
53	0xbfacda6d	-1.3504158
54	0xbf09c94c	-0.5382278
55	0xbf4ae3c2	-0.7925378

l3.bias f4 [7]
0	0x3dc664c7	0.096871905
1	0xbce01700	-0.027354717
2	0xbe8ba14e	-0.27271503
3	0x3e95a4dc	0.2922734
4	0x3e6043f7	0.21900927
5	0x3d83b5f6	0.06431191
6	0x3e27a6fb	0.16372292
